brain.pt (torch_old, 5313 bytes, 12 tensors)

fc1.weight f4 [32, 5]
000000 1f 16 c0 be 83 e2 1e be 22 e6 98 bd 9f ae 1d bd
       -0.37516877 -0.15516095 -0.07465769 -0.03849661
000010 bc 7d db be e0 62 41 3e 65 dd c4 3e d9 07 df bd
       -0.42869365 0.18885374 0.3845016 -0.10890169
000020 c6 81 a8 be 1f eb 79 3e 7a e7 7f 3e 27 0c 16 3e
       -0.3291151 0.24406098 0.24990645 0.14653073
000030 e3 aa 0c 3e 63 14 f9 bd 61 18 1b be 7a 7f c3 3d
       0.13737063 -0.121620916 -0.15146019 0.095457986
000040 6f 41 bf be dc c9 8c bc 16 e7 aa bd 86 fc 82 bd
       -0.3735461 -0.017186098 -0.083448574 -0.06395821
000050 67 a6 83 be 20 fb bc 3e 72 7e 1b be 7d 6d 98 3e
       -0.25712892 0.36910343 -0.15184954 0.29771033
000060 9b 7a 5e be b9 bb a5 3e f4 b1 1a bd 7e 8c 01 3d
       -0.21726458 0.32369784 -0.037767366 0.031628124
000070 42 7e 37 3e b9 3f c6 3d e5 7d 60 bf 36 05 ae be
       0.17919257 0.09680123 -0.876921 -0.3398835
000080 0c 27 1f bd 5f e4 45 3c 23 43 bb be fb 5d 72 be
       -0.038855597 0.012078374 -0.3657466 -0.23668663
000090 26 19 94 bb 4f ca bf be 64 45 a5 be b2 6f 4e bd
       -0.0045195995 -0.37459037 -0.32279503 -0.05039949
0000a0 0a 32 a7 3e b9 44 96 3d da 78 0b 3e 70 d3 0a 3d
       0.32655364 0.073373266 0.1362032 0.03389305
0000b0 ff f1 38 3d 84 40 60 be 47 c0 97 3e 71 a5 d7 be
       0.04515266 -0.21899611 0.29638883 -0.4211841
0000c0 90 99 7c 3e 4e 72 81 3e 79 ad 95 be 41 c2 38 bc
       0.24667954 0.2528252 -0.29233912 -0.0112767825
0000d0 56 12 22 be 6f ff 59 be 92 8d 02 be 96 a1 c0 be
       -0.15827307 -0.21288846 -0.12749317 -0.3762328
0000e0 6b 44 7a 3a b0 00 6a 3c 48 a6 82 3e 2e d8 82 3e
       0.0009546938 0.0142823905 0.25517488 0.25555557
0000f0 4a 93 db be a9 ad da 3d ec 83 3c be 82 62 bd 3d
       -0.4288581 0.10677654 -0.18409699 0.092473045
000100 b0 49 01 3d 50 2b 30 3e 8e 14 63 be 44 3e a4 be
       0.031564415 0.17204022 -0.2217581 -0.32078755
000110 98 b1 71 be da 07 5d be 81 9e 80 3d 87 8b 9b 3d
       -0.23602903 -0.21585026 0.06280232 0.07594972
000120 f0 6c df 3d 73 a1 fd 3e ca 80 65 b9 26 0f 96 3a
       0.1090945 0.49537238 -0.0002188712 0.0011448606
000130 65 1f 14 bf 79 e3 6d 3e 20 ed c9 be af 8c 35 3e
       -0.57860404 0.23231305 -0.39438725 0.17729448
000140 9c ab e3 be dd 47 90 be 79 71 33 3e 6a d4 01 3f
       -0.44466865 -0.28179827 0.17523755 0.50714743
000150 c8 e0 c0 bd 2f dd 8d 3d f2 2f e2 3d a5 5b f3 be
       -0.094178736 0.06926953 0.11044301 -0.47530857
000160 65 e5 3f be 14 87 d2 be 56 cc 03 bd 0c 3c 35 be
       -0.18739851 -0.4111868 -0.03217729 -0.17698687
000170 0e ca f0 3d 6a 0e c2 bd 3e 36 64 3e 70 a6 3b 3e
       0.11757289 -0.094754055 0.22286317 0.1832521
000180 c1 9b f0 3e f3 10 e5 3c 50 10 a5 be 0a 38 ad 3e
       0.4699383 0.027962184 -0.32239008 0.33831817
000190 8a 20 4e be 16 e3 24 3e f6 a2 45 3e 33 77 72 3e
       -0.201296 0.16102251 0.19300446 0.23678283
0001a0 99 0b 69 3e e2 4e c7 bd f5 dd 73 3e 92 a8 3e 3e
       0.2275833 -0.097318426 0.23815139 0.18618992
0001b0 a3 7b 3a 3d 0c af 3e be 55 61 35 3e c8 ee be 3d
       0.045528065 -0.18621463 0.1771291 0.09322888
0001c0 ec d8 a9 3d a9 b2 8f be 07 1c 82 be 5a 5c 36 bd
       0.08293328 -0.28065994 -0.25412008 -0.044521667
0001d0 9c 51 70 be 3c e5 48 be 06 da 05 3f 8a 13 19 3e
       -0.23468632 -0.19618696 0.522858 0.1494886
0001e0 81 66 b0 bd e8 86 67 be 6d 33 59 3c c3 a1 e0 3d
       -0.08613301 -0.22610056 0.01325689 0.109683536
0001f0 3f 55 e0 3d 89 40 ec 3d 22 04 90 be 4e 2a 32 3e
       0.109537594 0.115357466 -0.28128153 0.1739895
000200 7c 85 cc 3d a8 4b 80 bc 5b 90 2d 3e 07 cd 28 bf
       0.099863976 -0.015661076 0.16949598 -0.65937847
000210 ae 18 41 bd d5 47 16 3e 15 bf 08 3e b3 07 72 3d
       -0.047142677 0.14675839 0.13354142 0.059089374
000220 96 13 31 be 69 4b 19 bf c1 c0 8d 3d 81 7b 1b 3e
       -0.17292628 -0.5988069 0.069215305 0.15183832
000230 99 fe c5 be 00 55 a7 be 42 bc 03 3e 39 02 8f 3e
       -0.38670805 -0.32682037 0.12864783 0.27931383
000240 05 cb 90 3e 67 6a 65 be 8c bf 50 bc 6c 01 5b bd
       0.28279892 -0.2240387 -0.012740981 -0.053468153
000250 e4 e7 9b 3e 1a 34 d2 be 08 a7 bc be 13 db 34 3e
       0.30450356 -0.41055375 -0.36846185 0.17661695
000260 40 ff 9a 3c be 67 6c 3e fe f1 c9 3e 5e 6f 71 bd
       0.01892054 0.2308645 0.39442438 -0.0589441
000270 7b 1c e8 bd 5a ea 88 bd 45 ab 5e 3f 3a 15 ff be
       -0.11333557 -0.06685324 0.86980087 -0.49820882

fc1.bias f4 [32]
000000 7c c0 f3 3e bc 0d e0 3e 61 11 2c 3f 00 8b 98 3d
       0.4760779 0.43760478 0.6721402 0.07448387
000010 1f 52 f4 3e 8c f7 1c 3f 57 e0 a2 3e 49 70 b9 3e
       0.47718903 0.61315227 0.31811783 0.3621848
000020 15 2a 18 3f e3 ca c4 be df 27 01 3f 02 e9 9c bc
       0.5943921 -0.3843604 0.50451463 -0.019154076
000030 52 37 74 be 8b d2 d3 be 0d 68 bb be 37 90 98 be
       -0.23849228 -0.4137157 -0.36602822 -0.29797527
000040 c1 4b 3c 3f 95 80 09 3f 84 28 cf 3e 90 7b 4c 3f
       0.7355309 0.53711826 0.40460598 0.7987604
000050 8d 59 62 3f 6f 98 6b 3f 96 c9 15 3f 8e 41 2d 3f
       0.88417894 0.9202947 0.5851072 0.67678154
000060 ad a7 a3 bc 4f d1 df be 60 69 05 3f 3c 3c 21 3f
       -0.019977415 -0.43714377 0.52113914 0.62982535
000070 df af 17 3f f5 04 68 3f 43 81 cb be 25 a1 a7 3f
       0.59252733 0.90632564 -0.39747056 1.3096052

fc2.weight f4 [3, 32]
000000 5d d9 1f be 0d a5 45 be 08 67 1f 3f d2 d0 d6 be
       -0.15610261 -0.19301243 0.6226659 -0.41956192
000010 ba c6 d7 3e e4 41 b6 3e 42 fc 2f bd 46 c9 45 be
       0.42143804 0.35597146 -0.04296518 -0.19315061
000020 a0 e9 ae 3e ed cc fd bc 93 a0 b9 3c 20 c3 cd 3e
       0.34162617 -0.030981505 0.022659576 0.4018793
000030 4e c0 0c bc c6 54 a8 3d 70 58 83 3c f2 8d f6 bd
       -0.008590771 0.08219294 0.016033381 -0.12038793
000040 2a d3 52 3e a0 ab 26 3e ba dc 98 3c 2c 2d ca 3e
       0.20588365 0.16276407 0.018659938 0.39487588
000050 02 0a ff 3e f4 a0 23 3f 20 65 8b bd 54 e1 78 3e
       0.49812323 0.6391747 -0.068063974 0.24304706
000060 32 0d 2e 3e a4 37 4f 3d ec eb 2f 3f 88 92 15 3f
       0.16997221 0.050590172 0.68719363 0.58426714
000070 20 11 e6 3e 83 52 fd 3e 2f 8b 96 bd e9 c1 17 bf
       0.4493494 0.49477014 -0.07350766 -0.5928026
000080 2a 2e 07 3f d7 ac 69 bf 3b 28 40 3f 73 0f 0e 3e
       0.52804816 -0.9127936 0.75061387 0.13873081
000090 96 09 8e 3d 81 2d f3 3e 2b 6e cb 3e 0f 3e e2 3d
       0.06935422 0.47495654 0.3973249 0.11046993
0000a0 59 30 c5 3e 00 c1 44 bb 54 d8 fc 3e 07 2a 36 3e
       0.3851345 -0.0030022264 0.49383795 0.1778947
0000b0 e6 66 ea 3d 56 8c c3 3d 07 e0 88 3e 7b 9e a5 bd
       0.114454076 0.09548251 0.2673342 -0.080868684
0000c0 fa 78 cb 3e 5b 7b 49 3e 94 14 02 3d 79 cd 8a 3e
       0.39740735 0.19675963 0.031757906 0.27109888
0000d0 50 49 13 3f d6 bb f1 3e e0 c8 30 bf 6c a9 f4 3e
       0.5753374 0.4721362 -0.6905651 0.4778551
0000e0 12 12 a5 3e f0 a8 ad 3c 1e 65 09 3f 45 87 c9 3e
       0.3224035 0.02119872 0.5366992 0.39361015
0000f0 d5 a2 4f 3f b5 d0 10 3f 50 9d 6c bc 67 c6 9c bf
       0.81107837 0.5656846 -0.014441803 -1.2248048
000100 0e 78 61 3e 63 aa 47 3e d5 d8 fc 3e 2a 93 6d 3d
       0.22018453 0.19498591 0.4938418 0.058001675
000110 33 c0 23 3e 8c 8c 6c 3e 6d aa fa bc f5 25 12 3e
       0.15991287 0.2310049 -0.030598843 0.14272292
000120 36 a1 69 3e 08 46 6c 3d 06 78 2d 3e ca 8a ae be
       0.22815403 0.057683975 0.16940317 -0.34090263
000130 1e 33 12 3c d5 39 01 3e d3 fb 32 be 2a b3 02 be
       0.00892332 0.12619717 -0.17478876 -0.12763658
000140 17 4e b5 bc b8 d8 a1 3d 14 f2 1c 3e 5f 75 b1 3e
       -0.022131963 0.07902664 0.1532672 0.3465986
000150 78 61 c4 3e 8c 9c 88 3e 2c 65 75 3e 90 57 07 bc
       0.38355613 0.26681936 0.23964375 -0.008260623
000160 6a d4 f3 be 02 5e c2 3d 3e 84 df 3e 81 dc 78 3e
       -0.47622997 0.09490587 0.4365558 0.24302866
000170 16 56 fe 3e 18 78 0d 3e b0 39 8f 3d 0f de cf 3d
       0.49675053 0.13815343 0.06993425 0.10149776

fc2.bias f4 [3]
000000 7c c3 25 bc c0 29 eb 3e 89 f3 1a 3e
       -0.010117408 0.4593029 0.15131964

exp_avg f4 [32, 5]
000000 5d 0a 09 39 ad 8a b3 39 39 e3 9e 38 84 aa 17 3a
       0.00013069199 0.00034244862 7.5763506e-05 0.00057856017
000010 84 aa 17 ba 7a b6 97 b9 60 99 ae b7 3e b4 6d b9
       -0.00057856017 -0.0002893692 -2.0813837e-05 -0.00022669227
000020 87 ca a8 39 87 ca a8 b9 d2 6a 34 3b cc f3 46 3b
       0.00032194352 -0.00032194352 0.002752949 0.0030357717
000030 58 79 12 3b 2d 0c c8 3a 2d 0c c8 ba fe df 84 b9
       0.0022350159 0.0015262418 -0.0015262418 -0.0002534389
000040 0a 73 24 b8 d5 d7 27 b9 03 b9 32 b9 03 b9 32 39
       -3.9207785e-05 -0.00016006765 -0.00017044325 0.00017044325
000050 94 d6 a6 3a 8d c1 b5 3a ca 8d 81 3a 12 68 23 3a
       0.0012728744 0.0013866887 0.0009884175 0.0006233464
000060 12 68 23 ba 50 2f c4 3a d6 04 d3 3a be a2 9e 3a
       -0.0006233464 0.0014967714 0.0016099464 0.0012102944
000070 ec c7 4f 3a ec c7 4f ba f0 3f 19 b6 32 f3 2d b8
       0.0007926214 -0.0007926214 -2.2835993e-06 -4.1472907e-05
000080 df 03 e7 b7 6b eb 53 39 6b eb 53 b9 5a 10 16 b9
       -2.7539149e-05 0.00020210228 -0.00020210228 -0.00014311206
000090 e8 5f c9 37 8f bf 43 b8 cc 38 92 39 cc 38 92 b9
       2.4005727e-05 -4.6670026e-05 0.00027889607 -0.00027889607
0000a0 96 bb bd 3a a9 02 cd 3a 96 ce 99 3a a1 71 3e 3a
       0.0014475461 0.0015641052 0.0011734541 0.0007264857
0000b0 a1 71 3e ba 00 00 00 00 04 00 00 00 00 00 00 00
       -0.0007264857 0.0 6e-45 0.0
0000c0 04 00 00 80 04 00 00 00 5c 68 75 39 92 42 ce 39
       -6e-45 6e-45 0.00023403898 0.0003934098
0000d0 b0 c7 28 39 84 3d 1d 3a 84 3d 1d ba 04 00 00 00
       0.00016096118 0.0005998241 -0.0005998241 6e-45
0000e0 04 00 00 00 04 00 00 00 04 00 00 00 04 00 00 80
       6e-45 6e-45 6e-45 -6e-45
0000f0 00 00 00 00 04 00 00 00 00 00 00 00 04 00 00 00
       0.0 6e-45 0.0 6e-45
000100 04 00 00 80 00 00 00 00 00 00 00 00 00 00 00 00
       -6e-45 0.0 0.0 0.0
000110 00 00 00 00 00 00 00 00 9c 7b 53 b9 24 92 91 b9
       0.0 0.0 -0.00020168576 -0.00027765438
000120 0b b4 34 b9 06 62 2b b8 06 62 2b 38 aa c6 91 b7
       -0.00017233209 -4.086087e-05 4.086087e-05 -1.7377857e-05
000130 48 12 4d 36 44 36 1a b6 20 ca 90 b8 20 ca 90 38
       3.0558022e-06 -2.2979375e-06 -6.904104e-05 6.904104e-05
000140 2f bd 84 39 b8 6a 44 39 d8 09 4e 39 be 6b 06 3a
       0.00025317955 0.00018731772 0.00019649358 0.0005127749
000150 be 6b 06 ba 12 52 28 3a 61 9d 32 3a 2c df 08 3a
       -0.0005127749 0.0006420921 0.00068136124 0.00052212435
000160 fe 00 9a 39 fe 00 9a b9 5b d7 99 39 91 ca d5 39
       0.00029373908 -0.00029373908 0.00029342886 0.0004077745
000170 77 e3 8a 39 2e ea a0 39 2e ea a0 b9 0b 5b ec 3a
       0.00026490886 0.00030692056 -0.00030692056 0.0018032504
000180 67 61 04 3b 2a 20 c1 3a 2c e2 6b 3a 2c e2 6b ba
       0.0020199658 0.0014734317 0.0008998241 -0.0008998241
000190 22 36 0f 3b 84 64 1d 3b 1e 8f e8 3a 80 83 9a 3a
       0.0021852334 0.002401621 0.0017742848 0.0011788458
0001a0 80 83 9a ba 0e e1 1f 3b 00 81 24 3b 5e 7d 01 3b
       -0.0011788458 0.0024395618 0.0025101304 0.0019758563
0001b0 95 1d 5e 3a 95 1d 5e ba 01 df 3e 39 ac b0 e9 39
       0.0008473036 -0.0008473036 0.00018202887 0.00044572854
0001c0 ca 65 45 39 7c 11 53 38 7c 11 53 b8 ef 4a f9 39
       0.00018825303 5.0322604e-05 -5.0322604e-05 0.0004754881
0001d0 bf 8c ca 39 b8 2c a5 39 a9 af 09 3a a9 af 09 ba
       0.00038633306 0.0003150457 0.00052523107 -0.00052523107
0001e0 04 00 00 00 04 00 00 80 04 00 00 00 04 00 00 80
       6e-45 -6e-45 6e-45 -6e-45
0001f0 04 00 00 00 04 00 00 00 04 00 00 00 04 00 00 00
       6e-45 6e-45 6e-45 6e-45
000200 04 00 00 00 04 00 00 80 60 20 4e 3b 2a a9 37 3b
       6e-45 -6e-45 0.0031452402 0.0028024414
000210 4a 45 2e 3b c9 5c 62 3a c9 5c 62 ba 81 1c b5 3a
       0.0026591592 0.0008635042 -0.0008635042 0.0013817699
000220 2e 96 bb 3a bb bb 76 3a 9f f9 ed 39 9f f9 ed b9
       0.0014311725 0.00094121293 0.00045390145 -0.00045390145
000230 57 87 eb 3a b2 1c 0b 3b bc 3a ef 3a b8 6f bd 3a
       0.0017969412 0.002122682 0.0018251757 0.001445285
000240 b8 6f bd ba a9 31 c1 3a 01 5c c3 3a 92 30 93 3a
       -0.001445285 0.0014739531 0.0014904739 0.0011229685
000250 6f bb 72 3a 6f bb 72 ba 00 00 00 00 04 00 00 00
       0.0009259497 -0.0009259497 0.0 6e-45
000260 00 00 00 00 04 00 00 80 04 00 00 00 e2 f8 54 ba
       0.0 -6e-45 6e-45 -0.00081242446
000270 20 79 12 ba 55 4b 18 ba 72 9f a3 ba 72 9f a3 3a
       -0.0005587507 -0.0005809565 -0.0012483431 0.0012483431

exp_avg_sq f4 [32, 5]
000000 4b 43 32 34 08 c9 c7 34 ae d0 2a 34 0e 32 03 36
       1.6602023e-07 3.7212908e-07 1.5908401e-07 1.9549657e-06
000010 0e 32 03 36 03 7f fa 36 1b 7e 26 37 eb ae e2 36
       1.9549657e-06 7.4653667e-06 9.923732e-06 6.755688e-06
000020 b8 54 75 37 b8 54 75 37 0a 6d 26 39 49 1d 82 39
       1.4622863e-05 1.4622863e-05 0.00015871614 0.0002481735
000030 6b c3 e8 38 c9 09 c4 37 c9 09 c4 37 cd a5 0e 35
       0.000110990215 2.3369577e-05 2.3369577e-05 5.3140394e-07
000040 9a 9a 05 34 cd 13 22 35 18 c9 9a 35 18 c9 9a 35
       1.2442834e-07 6.0378517e-07 1.153242e-06 1.153242e-06
000050 34 be 64 37 56 56 03 38 e4 51 ce 36 1f 6f 30 36
       1.3634144e-05 3.131324e-05 6.1488117e-06 2.6290725e-06
000060 1f 6f 30 36 6f 50 3e 38 bb 33 93 38 51 8f 07 38
       2.6290725e-06 4.537444e-05 7.019142e-05 3.2319982e-05
000070 0c 27 00 37 0c 27 00 37 cf 70 ef 2f 39 d7 c7 33
       7.638486e-06 7.638486e-06 4.3554002e-10 9.3058084e-08
000080 4a a5 97 32 a4 59 49 35 a4 59 49 35 43 e8 f2 36
       1.7653878e-08 7.500878e-07 7.500878e-07 7.239201e-06
000090 6a d0 37 37 c5 22 b3 36 89 b6 b4 36 89 b6 b4 36
       1.0956175e-05 5.3386634e-06 5.385668e-06 5.385668e-06
0000a0 81 12 31 38 42 0e 89 38 96 a2 fa 37 ad 4d e5 36
       4.221732e-05 6.535325e-05 2.9878032e-05 6.8337745e-06
0000b0 ad 4d e5 36 00 00 00 00 03 6a fb 1d 00 00 00 00
       6.8337745e-06 0.0 6.654876e-21 0.0
0000c0 6c 8d f2 1d 6c 8d f2 1d ba 46 c5 34 61 6b 6a 35
       6.4203093e-21 6.4203093e-21 3.674557e-07 8.732805e-07
0000d0 3d 51 70 34 19 ff c6 35 19 ff c6 35 80 83 89 28
       2.2381296e-07 1.4826393e-06 1.4826393e-06 1.5267084e-14
0000e0 cb d9 97 28 b9 a0 b3 28 98 43 28 29 98 43 28 29
       1.685882e-14 1.9942694e-14 3.7362122e-14 3.7362122e-14
0000f0 00 00 00 00 62 6a e9 1a 00 00 00 00 a4 b4 57 1a
       0.0 9.653841e-23 0.0 4.4606878e-23
000100 a4 b4 57 1a 00 00 00 00 00 00 00 00 00 00 00 00
       4.4606878e-23 0.0 0.0 0.0
000110 00 00 00 00 00 00 00 00 ae 4c ac 34 63 6e fc 34
       0.0 0.0 3.2093288e-07 4.7018975e-07
000120 6b 03 37 34 62 de 91 34 62 de 91 34 96 76 16 33
       1.7044447e-07 2.717016e-07 2.717016e-07 3.503245e-08
000130 ae f4 85 32 aa 33 84 33 b2 73 b1 35 b2 73 b1 35
       1.5594505e-08 6.1561266e-08 1.3221199e-06 1.3221199e-06
000140 21 37 1f 35 3d 9c e0 35 9c b5 07 35 17 90 c1 35
       5.931234e-07 1.6734772e-06 5.0555695e-07 1.4421556e-06
000150 17 90 c1 35 5d fe 0d 36 0a 81 94 36 cf 47 8f 35
       1.4421556e-06 2.1158696e-06 4.425766e-06 1.0675229e-06
000160 70 ab 11 35 70 ab 11 35 4d 6e cf 34 1a 30 33 35
       5.4266184e-07 5.4266184e-07 3.863701e-07 6.6752693e-07
000170 c6 a9 7e 34 53 a8 e8 33 53 a8 e8 33 7f 8b 86 38
       2.3717357e-07 1.083396e-07 1.083396e-07 6.415601e-05
000180 2f 20 d3 38 6e e1 38 38 22 57 10 37 22 57 10 37
       0.00010067259 4.4078966e-05 8.603356e-06 8.603356e-06
000190 ab 78 cd 38 6a 5b 20 39 d2 e2 8f 38 f0 e9 74 37
       9.797638e-05 0.00015292843 6.86102e-05 1.4598001e-05
0001a0 f0 e9 74 37 5d 67 0e 39 82 a4 58 39 20 4a cc 38
       1.4598001e-05 0.00013580681 0.00020660649 9.741285e-05
0001b0 6a fc d5 37 6a fc d5 37 84 2b 09 35 22 88 20 35
       2.5509118e-05 2.5509118e-05 5.10998e-07 5.9802744e-07
0001c0 28 56 36 35 84 b0 78 36 84 b0 78 36 dc 4c f4 35
       6.792566e-07 3.7057625e-06 3.7057625e-06 1.8201786e-06
0001d0 43 5d 91 36 0f e0 83 35 d2 a3 f5 35 d2 a3 f5 35
       4.332194e-06 9.82547e-07 1.83016e-06 1.83016e-06
0001e0 da 77 85 27 7c 5a 85 27 16 93 f5 27 40 d2 cc 28
       3.704486e-15 3.701302e-15 6.816063e-15 2.2739731e-14
0001f0 40 d2 cc 28 6e 70 77 1f 2b 52 e8 1e 6e 70 77 1f
       2.2739731e-14 5.2397284e-20 2.459794e-20 5.2397284e-20
000200 d0 8b 6c 1f d0 8b 6c 1f 4d 4c a4 37 03 6b b2 37
       5.0090594e-20 5.0090594e-20 1.9585854e-05 2.1269085e-05
000210 95 e5 29 37 33 bc e4 36 33 bc e4 36 be a6 7f 37
       1.0126639e-05 6.816839e-06 6.816839e-06 1.5238007e-05
000220 44 95 29 38 2d cb bc 36 e7 ba b2 36 e7 ba b2 36
       4.0431754e-05 5.6264894e-06 5.3265717e-06 5.3265717e-06
000230 7f 2c 3c 37 10 83 03 38 0c bc 2e 37 e2 d2 05 37
       1.1216033e-05 3.1354895e-05 1.0414991e-05 7.976518e-06
000240 e2 d2 05 37 2c 51 8f 37 92 3b 1d 38 cf 32 25 37
       7.976518e-06 1.7084727e-05 3.7487196e-05 9.846596e-06
000250 49 15 a0 36 49 15 a0 36 00 00 00 00 06 d0 00 1f
       4.7708495e-06 4.7708495e-06 0.0 2.7277127e-20
000260 00 00 00 00 15 8b f8 1e 15 8b f8 1e da cf 89 37
       0.0 2.6315544e-20 2.6315544e-20 1.6428461e-05
000270 70 b9 1a 38 f2 ab 38 37 96 bb 7d 37 96 bb 7d 37
       3.6889163e-05 1.1007289e-05 1.5123651e-05 1.5123651e-05

exp_avg f4 [32]
000000 9c bc 10 3b 4f ea 1f bb ae c4 c4 3b fc dd d1 39
       0.0022085076 -0.0024401133 0.0060048914 0.00040028978
000010 30 68 ed 3a 1b 0d 62 3b 90 17 aa 3a 48 f3 fa 39
       0.0018112715 0.0034492675 0.0012976993 0.00047864974
000020 4d 00 4b 3b 04 00 00 00 77 8d 0b 3b 04 00 00 00
       0.003097552 6e-45 0.0021294036 6e-45
000030 04 00 00 00 00 00 00 00 3d 2d c9 b8 63 9b b4 38
       6e-45 0.0 -9.592853e-05 8.612012e-05
000040 f7 64 cf 3a 87 58 be 3a 71 1f 20 3a 15 9a 54 3b
       0.0015822937 0.0014522233 0.0006108201 0.0032440473
000050 52 ce 99 3b 02 3f 92 3b 95 a1 e5 ba c0 97 09 3b
       0.0046937848 0.0044630775 -0.0017519469 0.002099499
000060 04 00 00 00 04 00 00 00 6a c2 a5 3b 23 ad 4a 3b
       6e-45 6e-45 0.0050585764 0.0030925951
000070 31 4d ab 3b 4e 1a 6d 3b 04 00 00 00 4f 74 9e bb
       0.005227708 0.003617901 6e-45 -0.0048356424

exp_avg_sq f4 [32]
000000 ae e7 d6 38 77 40 de 39 1c 53 2a 3b 05 19 22 38
       0.00010247469 0.0004239117 0.0025989478 3.864711e-05
000010 69 54 91 39 d9 2f 4c 3a 51 74 d2 37 ee 0b 93 37
       0.00027719446 0.0007789112 2.5088115e-05 1.752932e-05
000020 12 df 2a 3a 03 6a fb 1d da c2 2c 39 2b ba 1f 2a
       0.00065182254 6.654876e-21 0.00016475786 1.4186627e-13
000030 62 6a e9 1a 00 00 00 00 64 d1 06 35 2f 64 1a 36
       9.653841e-23 0.0 5.0223593e-07 2.3006103e-06
000040 dd a7 09 39 4f 32 b7 38 a7 eb 46 37 8b 2c 55 3a
       0.00013127872 8.735491e-05 1.1856587e-05 0.00081319426
000050 05 f5 cc 3a 1e 0c d4 3a 36 9e 1c 39 6b e1 66 39
       0.0015636986 0.0016177928 0.00014936258 0.00022018484
000060 89 c3 72 2a 6e 70 77 1f 1d d7 a3 3a 67 b7 58 3a
       2.1561758e-13 5.2397284e-20 0.0012500022 0.0008267075
000070 96 41 be 3a 03 38 53 3a 06 d0 00 1f 76 96 d8 3a
       0.0014515396 0.00080573576 2.7277127e-20 0.0016524333

exp_avg f4 [3, 32]
000000 12 12 00 3a 4a 74 39 3b 34 cd 77 3b 20 d9 15 37
       0.0004885505 0.0028298073 0.003781152 8.931645e-06
000010 66 c0 c3 3a 42 36 46 3b b6 cc 82 39 f0 52 a7 b8
       0.0014934659 0.0030244743 0.00024948054 -7.978629e-05
000020 80 72 69 3b 04 00 00 80 a0 dc c3 39 04 00 00 00
       0.0035621226 -6e-45 0.00037357677 6e-45
000030 04 00 00 80 00 00 00 00 6d 63 61 39 ba 2f 2c b8
       -6e-45 0.0 0.00021494711 -4.1052444e-05
000040 de 33 9e 3a 64 ea 97 3a ee 4e 92 3a a1 6b 99 3b
       0.0012069901 0.001159024 0.0011162439 0.00468202
000050 30 69 54 3b 72 af 7d 3b 82 33 3f 3b 08 d5 87 3a
       0.003241133 0.003870931 0.0029174988 0.0010363171
000060 04 00 00 00 04 00 00 00 74 fb bc 39 90 54 d7 39
       6e-45 6e-45 0.00036045501 0.00041071
000070 80 39 80 39 dc 12 09 3b 04 00 00 80 ac 6b 6a 3b
       0.00024456903 0.0020915782 -6e-45 0.0035769744
000080 fe 2f f3 3a 3a d8 8d 3a a4 f5 12 3b 35 79 78 39
       0.0018553731 0.0010821887 0.0022424245 0.00023696276
000090 c6 a6 fd 3a d6 0f 09 3b 7e 18 ae 3a 96 1c 85 3a
       0.001935207 0.002091398 0.0013282446 0.0010155614
0000a0 20 6c 00 3b 00 00 00 00 4e 16 d5 3a 04 00 00 00
       0.0019595698 0.0 0.0016257258 6e-45
0000b0 00 00 00 00 00 00 00 00 56 1d 2f 38 ec 32 38 b7
       0.0 0.0 4.1750573e-05 -1.0979111e-05
0000c0 76 c3 3a 3b 0e 0b 00 3b ee d3 94 3a 56 63 0f 3b
       0.0028497851 0.001953784 0.0011354664 0.0021879277
0000d0 76 c6 3f 3b 70 60 51 3b c0 5f f9 3a b8 ad 24 3b
       0.002926258 0.003194835 0.0019025728 0.0025127959
0000e0 04 00 00 80 00 00 00 00 3c 8b e6 3a 8f e6 06 3b
       -6e-45 0.0 0.0017589102 0.00205842
0000f0 d2 08 01 3b 7d e8 64 3b 00 00 00 00 5c 17 ac 3b
       0.0019689095 0.0034928613 0.0 0.005251808
000100 53 f8 9a 3a f6 a4 9d 3a 25 bf 47 3b e0 10 01 b7
       0.0011823274 0.0012027312 0.0030478921 -7.692928e-06
000110 a6 98 3d 3b 52 31 23 3b ef ea 00 3a 38 15 b9 38
       0.0028930097 0.0024901223 0.00049178203 8.82544e-05
000120 9b 8b 2e 3b 00 00 00 00 5a 00 2a 3a 04 00 00 80
       0.0026633504 0.0 0.0006485038 -6e-45
000130 04 00 00 80 00 00 00 00 d3 74 9b 39 86 42 55 b8
       -6e-45 0.0 0.00029650945 -5.0845112e-05
000140 60 bb 17 3b 78 99 f3 3a f0 c7 72 39 f1 3b 24 3b
       0.0023152456 0.0018585166 0.00023153401 0.0025060142
000150 a5 1f 46 3b ae cd 81 3b 54 e3 17 3b 65 ed fa 3a
       0.0030231264 0.0039612865 0.002317627 0.0019144235
000160 04 00 00 80 04 00 00 00 c8 98 89 39 62 00 32 3a
       -6e-45 6e-45 0.00026244507 0.0006790218
000170 74 d5 15 3a 7c 1d 79 3b 00 00 00 00 90 e1 cf 3b
       0.0005715706 0.0038011959 0.0 0.006344028

exp_avg_sq f4 [3, 32]
000000 6f e2 e9 38 94 14 90 3a 18 7b 9a 3a 14 7e 78 36
       0.00011152482 0.0010992461 0.0011785952 3.7028267e-06
000010 3d 2e 89 39 7f 7e 48 3a cf 2f 1d 38 04 cc d3 38
       0.00026165126 0.0007648244 3.7476242e-05 0.00010099265
000020 25 07 81 3a 46 f9 6d 1d 35 dd 25 39 5b fd 05 29
       0.0009844048 3.149556e-21 0.00015818032 2.9751683e-14
000030 9f 02 94 1b 00 00 00 00 35 cb cf 35 96 4f 40 35
       2.448624e-22 0.0 1.5481843e-06 7.1641387e-07
000040 46 b7 af 39 94 08 82 39 44 97 5d 39 00 04 1c 3b
       0.0003351515 0.00024801923 0.00021132553 0.0023806095
000050 6b 17 b1 3a 36 c6 cf 3a 6f 82 6b 3a 84 2d 99 39
       0.0013511007 0.0015851918 0.00089839747 0.00029216346
000060 4b da 99 28 33 c7 23 1f c7 a6 d9 38 9c 2f 70 39
       1.7081082e-14 3.4681366e-20 0.00010378431 0.0002290592
000070 ad 3d 25 39 40 7d 35 3a fe 0e e2 1e 04 10 e0 3a
       0.00015758602 0.0006923266 2.3934881e-20 0.0017094617
000080 fb c0 b3 38 60 95 aa 38 58 4f 30 39 64 4f 8c 36
       8.5713305e-05 8.134055e-05 0.00016814226 4.1815674e-06
000090 5a 07 b7 38 76 52 12 39 25 62 24 38 f5 91 60 38
       8.727489e-05 0.00013954364 3.919205e-05 5.3541695e-05
0000a0 fd 98 08 39 00 00 00 00 af 0b be 38 4a 0d f6 29
       0.00013026963 0.0 9.062082e-05 1.09269e-13
0000b0 00 00 00 00 00 00 00 00 bf a8 cb 33 cf d0 c6 34
       0.0 0.0 9.483619e-08 3.7032302e-07
0000c0 21 61 5f 39 f6 da dd 38 3e 1b 68 38 ff 2d 72 39
       0.0002130312 0.00010578886 5.533848e-05 0.00023096053
0000d0 ab bf 9a 39 d3 7d aa 39 fa d5 15 39 fc e9 36 39
       0.00029515973 0.00032518673 0.0001428946 0.00017444039
0000e0 c8 49 e5 29 00 00 00 00 e8 8b cb 38 80 b1 14 39
       1.0182442e-13 0.0 9.705854e-05 0.00014180504
0000f0 21 93 06 39 08 85 a9 39 00 00 00 00 ae 2e 43 3a
       0.00012834046 0.00032333308 0.0 0.00074456155
000100 72 08 c2 38 f3 8c 69 39 3f a2 d5 39 f5 c5 6b 36
       9.252214e-05 0.00022273119 0.0004074741 3.5132955e-06
000110 5e 2a 4b 39 bc d3 9d 39 c4 a1 07 38 c6 0a 82 38
       0.00019375372 0.00030103128 3.2337164e-05 6.20089e-05
000120 4d a0 a8 39 00 00 00 00 a2 4b e1 38 91 20 8e 22
       0.0003216289 0.0 0.00010742924 3.852366e-18
000130 db 74 87 1a 00 00 00 00 c6 1f b1 35 40 53 06 35
       5.602348e-23 0.0 1.3196775e-06 5.0040035e-07
000140 69 fd 8f 39 64 97 3f 39 db 52 90 38 2a 37 17 3a
       0.0002746389 0.00018271577 6.881888e-05 0.0005768413
000150 ae bf 12 3a 53 11 34 3a e4 69 a4 39 a0 4b 78 39
       0.00055980205 0.00068690366 0.00031359412 0.00023679296
000160 a4 43 88 23 ac 3e 13 1e 3c c8 ba 38 63 f2 31 39
       1.4773796e-17 7.7950754e-21 8.906468e-05 0.00016970331
000170 dd 17 06 39 dc a4 0e 3a 00 00 00 00 cd 9d b2 3a
       0.00012788126 0.0005441436 0.0 0.001362735

exp_avg f4 [3]
000000 c0 4f 54 3b 50 86 58 3b d5 bd 42 3b
       0.0032396168 0.003303904 0.00297152

exp_avg_sq f4 [3]
000000 b6 d9 d8 3a a4 d4 ce 39 ab 7c 39 3a
       0.0016544375 0.0003944981 0.0007075767
